data.pth (torch, 9023 bytes, 6 tensors)

l1.weight f4 [8, 124]
00000000: f7df 95be 9467 d03d 5239 0a3e aceb d13e
00000010: 001b cb3e 71fe 16be f0e9 20be 1873 423f
00000020: 9d0d 1a3f bbc6 03bf da3c 223f 4589 e4be
00000030: 340c 123d d11d ca3e 84e9 383f 4576 0dbf
00000040: 75ec 213f a89a dc3d 9f6f 54bf c618 4a3d
00000050: 18f3 503f 6aa4 0c3f 85c4 4f3e 68bd 133e
00000060: 973b 9abc c0bd f63e a8bf 833f 33e4 083f
00000070: b403 1a3e cf30 873e 94d2 7ebf b533 313e
00000080: 5c01 a8bc f0a9 383e 82e2 413f 2334 b23e
00000090: acef 1c3e 8fa0 b63e 0329 423f 1625 b7bf
000000a0: c00b e73e 53be 6c3f 4d61 b43e f6d1 173f
000000b0: ef3f d43e 5b7f 673e d1a1 d83e cbeb 9b3e
000000c0: f510 6d3e b89e 783e 1d74 34bd 099e 993e
000000d0: 790d 053f 1df7 e6be 060d 51be e7d3 48be
000000e0: e458 52be 7217 2c3f ec41 a23d 441c 863f
000000f0: 3c60 3e3f dd16 1f3f fbaf 85be de7e 2a3f
00000100: 8f00 de3e a6d7 9b3e 353d 353f 397a b83e
00000110: 723a f83e cd39 1abd cbf1 fd3e a69c 0c3d
00000120: 44eb 18bd 2c2c d4be 3a62 6c3f dcc9 54bf
00000130: 54ce 823e a2a4 323f c0f8 5a3f f9dd 043f
00000140: 7f4e dabd a4ce 4a3e 7452 78be 6eb8 593f
00000150: e533 8f3f f148 8b3d 4d01 d53e 3003 c0be
00000160: 79bd 15be a0ff 213f aeb8 a2be 54b5 1c3f
00000170: d2dc 473f 7f36 cc3e 19a6 083f b375 32bf
00000180: a44b 3c3f 9354 da3e 6d16 073f 3242 583e
00000190: e561 3c3f e33e 6abe e37c e63c 611c 19bf
000001a0: c754 6c3f 645b 6e3f d883 ad3e 8b47 073e
000001b0: 910e 2c3f f302 e43e a090 343e a510 c13f
000001c0: 7bb5 463f cc76 d93e 1f5d 353f d864 123d
000001d0: dee1 783e 791c 52be 0ccd 0e3f 3d41 933c
000001e0: 5b57 b5bd 2b16 833e aa25 0c3f 3e91 003f
000001f0: 2ec9 b53e df51 8abe a160 553d 9afc dabe
00000200: 5f72 98be ef2a de3e dd44 93be 2aad c2be
00000210: 7176 06be 54eb 04bf e5c4 26bf 87cb ff3d
00000220: 6971 57bf b2a0 893f cbd4 9f3d 6e73 833f
00000230: 2fb0 ce3e f09c 5bbe 522e a43f 5916 853e
00000240: faee edbe 1142 443e eb51 c23e 6885 2d3f
00000250: eba7 623e a96a b6be e8f8 a53f 3aa0 48be
00000260: 11fd b73e f67b ba3e bffc 833f 5f9b 37be
00000270: fed3 a2be 5027 d5be 9248 d9be 31c2 123f
00000280: 0d94 53be a501 84bd 3944 523f e783 4f3f
00000290: 1117 a7be 734d 38bf 914a 793e b8da 2fbd
000002a0: 373e 03bd 4145 26be 1dbc 0dbf c138 133e
000002b0: 538b fcbe 325a 93be 74b3 733e 7e38 c1be
000002c0: ddf0 f3be 8bb3 21bf 8530 2dbf be3c 2dbf
000002d0: cf3b 2dbf 9ba9 3abf 78b9 35bf 4e6b 4a3f
000002e0: ec5c bc3d 6660 c13e 4fc6 223f 33bb 943f
000002f0: ca90 80be 7b66 983e 71ad e23e 10e3 133c
00000300: 5f14 d4be 7f24 e0bd acd7 0d3f b625 44bf
00000310: d7c6 e53e 887e 0dbf 81fd b5bd 4562 d53e
00000320: 43a2 a0be 4beb 573f 21ab a13f 8d80 c3bd
00000330: 5665 3bbb b85b a03d 5a38 2dbf b1f6 dabe
00000340: fd79 5b3f 0533 163f 9e00 69be 6306 003f
00000350: 24b9 ad3e f04a 1e3b 39ad d33e 54c8 acbe
00000360: 0bd8 2cbf af87 88bf 655e b53e 1786 923f
00000370: eddb 993a d302 00bf 5542 a1be 4af5 793e
00000380: cb9a 3b3f df2f 8ebe 692e 993f ab2d dabe
00000390: 09c5 953f a275 38bf 2123 993e 8430 af3e
000003a0: b730 373e 2e91 7b3e 1f1e 40bf 455d 04bc
000003b0: 757d 61bf cd99 fabd 0cdf 13bf 8f65 a9be
000003c0: 71bd 68bd c04e 62be 797c 773f b987 0cbd
000003d0: fa84 03bf 4766 153e eb16 0d3f 54a0 463e
000003e0: 5676 b83e a0dc a4be b405 8dbc b230 d43e
000003f0: f6e9 8abe ff87 cb3e a42d e13d 8284 d1be
-0.29272434 0.10176006 0.13498428 0.41000116 0.39669037 -0.14745499 -0.1571424 0.7595687
0.6017702 -0.51475114 0.633741 -0.44635978 0.03565617 0.39475873 0.72231317 -0.5525859
0.6325143 0.10771686 -0.8298282 0.049340032 0.8162093 0.54938376 0.2028981 0.14427722
-0.018827243 0.48191643 1.0292864 0.53473204 0.15040475 0.26404426 -0.99540067 0.17304881
-0.02050846 0.18033576 0.7573625 0.34805402 0.15325803 0.3566937 0.7584383 -1.4308193
0.45126152 0.9247791 0.35230485 0.5930475 0.41455027 0.22607176 0.42310956 0.30453333
0.23151 0.24279296 -0.044056047 0.30003384 0.5197368 -0.45110407 -0.20415124 -0.19612084
-0.20541722 0.67223275 0.0792273 1.0477376 0.7436559 0.6214426 -0.26110825 0.66599834
0.433598 0.30437964 0.7079652 0.36030748 0.4848209 -0.03765278 0.49598536 0.03432908
-0.03733374 -0.4143995 0.9233738 -0.8312051 0.2554804 0.6978246 0.8553581 0.51901203
-0.10659503 0.1980539 -0.24250203 0.8504704 1.1187712 0.06801022 0.41602555 -0.37502432
-0.1462306 0.6328068 -0.31781524 0.61214185 0.7807132 0.39885327 0.53378445 -0.69710845
0.7355292 0.4264265 0.52768594 0.21119002 0.73586875 -0.22875552 0.028135723 -0.5980893
0.9231686 0.931082 0.3388965 0.13210885 0.67209727 0.445335 0.17633295 1.5083205
0.7762067 0.42473447 0.70845217 0.035740703 0.24304911 -0.20518674 0.55781627 0.017975444
-0.08854552 0.2560285 0.5474497 0.5022162 0.3550505 -0.27015588 0.052094106 -0.42770845
-0.29774758 0.4339213 -0.28763476 -0.3802274 -0.1313112 -0.5192158 -0.6514419 0.12489992
-0.84157425 1.0752165 0.07804259 1.0269601 0.40368792 -0.21446586 1.2826636 0.25993612
-0.46471387 0.19165827 0.37953123 0.67781687 0.22134368 -0.3562825 1.2966585 -0.19592372
0.35935262 0.364227 1.0311507 -0.17930363 -0.31802362 -0.41631556 -0.4243818 0.5732756
-0.20661946 -0.06445626 0.8213535 0.8106064 -0.32634786 -0.7199318 0.24344851 -0.042933196
-0.032041755 -0.16237356 -0.55365163 0.14377119 -0.49325046 -0.2877975 0.23798925 -0.37738413
-0.47644702 -0.63164586 -0.6765216 -0.6767081 -0.67669386 -0.7291505 -0.7098613 0.79069984
0.09197411 0.3776886 0.63583845 1.1619629 -0.25110465 0.29765686 0.4427295 0.009026304
-0.41421792 -0.10944461 0.55407214 -0.7662004 0.44878265 -0.55271196 -0.08886243 0.41676536
-0.31373796 0.84343404 1.2630349 -0.095460035 -0.0028594336 0.07829994 -0.6766411 -0.42766336
0.85733014 0.586716 -0.22754142 0.50009745 0.33930314 0.0024153553 0.41343096 -0.33746588
-0.67517155 -1.0666407 0.3542358 1.1447171 0.0011738517 -0.5000431 -0.3149592 0.24409977
0.7328307 -0.27770898 1.1967288 -0.42612967 1.1700755 -0.72054493 0.29909614 0.34216702
0.17889677 0.245671 -0.7504596 -0.008078878 -0.8808206 -0.122363664 -0.5776222 -0.33085296
-0.05682129 -0.22100353 0.96674305 -0.034309123 -0.5137478 0.14589797 0.55113095 0.19397098
0.36027783 -0.32199574 -0.017214634 0.41443402 -0.27131623 0.39752194 0.109950334 -0.40921408

l1.bias f4 [8]
00000000: b316 e73f 743e 2d3f c0ff 063f a535 4f3f
00000010: 2bf1 a03f b3e0 be3f c38d 2c3f bd3d 903f
1.8053802 0.6767342 0.52733994 0.8094123 1.2573599 1.4912323 0.6740381 1.1268841

l2.weight f4 [8, 8]
00000000: 6adc bebd 013c 0ebf 3992 7e3f 4550 1240
00000010: 017c 1cbf 4de1 7a3e 8f5b de3f e370 913f
00000020: 27e6 f13f c6f5 9b3f c764 7fbf 1472 ef3f
00000030: af3c a8bf ac9a 0f40 2eb9 f03f 8920 c0bf
00000040: 1857 1c40 336c 47bf 25b7 97be 8331 94bf
00000050: b2ab 873f 6c79 3dbd 11c0 9b3e 22bd 103f
00000060: 3b4b 37be 4432 c4bd f042 9bbe fe76 a7be
00000070: dc24 a93d df7b b3be f32a 993e 8027 db3b
00000080: e95a 163f 0f8d 0dbe 81f5 2a3f 75bf 413f
00000090: 9c55 493f b64e c0bf c878 f33f 5af3 9e3f
000000a0: 6bb6 9c3e 6d09 c5bf 2e36 0cc0 cb42 b03f
000000b0: 055d c33f 3473 e13f 0000 95bf 303a a33f
000000c0: 4fe6 e3be 85da 2e3f a0d2 db3f 9611 05bf
000000d0: 7eba 1240 fbaa 02bf 19ef 053f e8ca f93f
000000e0: 01e6 d93e 27ba 0b40 3a6f 933f f41e 74be
000000f0: 46ac c03e b267 0840 394e c5bf 86c3 1b3f
-0.093193844 -0.5556031 0.9944187 2.2861493 -0.61126715 0.24500008 1.7371691 1.1362575
1.8898362 1.2184379 -0.9976315 1.8706689 -1.3143519 2.2438154 1.8806512 -1.5009929
2.4428158 -0.77899474 -0.29631916 -1.157761 1.0599272 -0.046258375 0.30419973 0.56538594
-0.17899792 -0.095799 -0.30324507 -0.3270797 0.082589835 -0.35055444 0.2991558 0.0066880584
0.5873247 -0.13823341 0.6678086 0.75682765 0.78646255 -1.5024021 1.9021235 1.2418015
0.30607924 -1.5393502 -2.1908069 1.3770384 1.5262762 1.7613282 -1.1640625 1.2752132
-0.4451165 0.68302184 1.7173653 -0.5197996 2.2926326 -0.51042145 0.5231796 1.9515047
0.42558292 2.1832368 1.1518319 -0.23839933 0.37631434 2.131329 -1.5414497 0.6084522

l2.bias f4 [8]
00000000: fad6 5bbe edb0 6a3f 41c5 8a3f 1e0f b0be
00000010: 5a6b 99be 5eb4 7d3f 972f 363f 2cc1 2b3f
-0.21468726 0.9167622 1.0841447 -0.34386533 -0.29964715 0.99103343 0.71166366 0.6709163

l3.weight f4 [23, 8]
00000000: 515d 21bf d3d0 97bf aa5b e0bf c0ef a33c
00000010: 0045 2ebf 4d0a c5bf 06e6 273f c2df 363f
00000020: a546 4c3d 23d6 efbc 464c 43c0 042a 7bbe
00000030: bffe c7be 5892 c6be 3e23 473e 2529 c53d
00000040: f4f2 a6bf 564b 2b3f 84d3 0b3e 2ec0 dabd
00000050: fbe6 16c0 9d72 4bbf 7958 b9bf 0c12 e43e
00000060: d58a 19bf e16b 753e 21c9 b7bf 3e8b 89be
00000070: b3b1 1bc0 0c8c db3d 60b1 b0bd 6c03 e53e
00000080: 1085 4d3e 8c33 92bf bdde ebbf 203a 7a3d
00000090: 4f82 cd3e b956 f2bf f206 503f ae21 18bf
000000a0: cbb4 2ebe 2bc9 f23e 0a18 f7bf 408d fb3c
000000b0: ea2e dfbf bd4c ffbf 0084 04bf baf5 433f
000000c0: fb98 20c0 6d49 0dc0 1332 303f c02c 343c
000000d0: 7f32 76be ae8f ef3e 9375 883e 1035 6bbe
000000e0: 149d 6dbd 0a6b bdbf 6e1a aabf ee44 3f3e
000000f0: 9a2a 603e f6b7 353f 5225 223e da85 81bf
00000100: 04c8 0f3e 6398 433f e7af dcbf 4a09 70be
00000110: 6456 33bd 46d5 a8bf 67e7 aabf 5138 0dbe
00000120: 80f3 273f 7af0 703e 31d2 ffbf c17c 873e
00000130: e5ea ef3e 245d e3bf 6e24 bcbd 3271 b8bf
00000140: b804 54be 2389 a23e 65f7 c03e 9c17 95bd
00000150: 117b 5ac0 a1a1 673f 1400 19c0 d3ba c1be
00000160: 554b 863e e74b b03e b653 d8bf 48f1 43bd
00000170: e027 05bf 2c0e 123f 4430 b8bf f6a5 3ebf
00000180: 1b05 173e 05de 1c3f cab8 cb3e b12f 68be
00000190: 2511 23bf c864 66be 0475 e3bf c9ad c7bf
000001a0: 7557 9dbf 2d4b 00bf 725e 28bc 4ca2 a6be
000001b0: e4bf acbf 2bac 65bf 4cbe 523e 5778 363f
000001c0: 3d1b ea3c a4e6 5fbe 2dc1 c7be 6ed6 3b3e
000001d0: f74a c53d 9d75 16bf 110e 433d 9b65 10bf
000001e0: 4fb7 42bf 48fd 1a3f d4be ac3e 47ab 9f3e
000001f0: 9a1b a6be c356 40c0 ff4b 90be 2f20 58be
00000200: 732e ffbe 4d6a 95bf 8486 bd3e a04f e9bc
00000210: 5094 d23e 6e75 e03e 9723 c73c cbcd d2bf
00000220: 8c6a 07c0 ede4 e93d 3fe9 583f 307a aebd
00000230: c89b d4be ebda 09bc 7e37 06be 5c0a 6bbf
00000240: b971 43c0 0d7e b0be abb4 113e b00d 4f3d
00000250: 5730 3dc0 eae6 673f 8975 04be fdff b03e
00000260: 4d53 1ebe 00dc 7dbe fcd9 94be 1f8b 8f3e
00000270: 5b9b a4bf ea70 8f3f 9b30 88be fe0f 5bbf
00000280: ef03 58bf 7bee cebf 5dbe 023f 35bf 9e3e
00000290: 54eb 483e 2592 0bc0 ce91 793e 20fc 1a3e
000002a0: 5a93 863e d341 a7bf 5108 003f 003f 74bc
000002b0: 89df fc3e 6560 acbf 5285 f23e 1aeb 06c0
000002c0: 260b c3be 810e e53d 720f 2c3e e1a3 9a3e
000002d0: fd52 b43d 9d08 1b3e 6e4f 183d 8e5b 4ec0
-0.63033015 -1.1860603 -1.7527974 0.020011783 -0.68074036 -1.5393769 0.6558536 0.7143518
0.04987206 -0.029276913 -3.0515304 -0.24527746 -0.39061543 -0.38783526 0.19447038 0.09626988
-1.3042893 0.6691183 0.13654906 -0.106811866 -2.357848 -0.7947176 -1.4480125 0.4454502
-0.59977466 0.23966934 -1.4358255 -0.26864046 -2.432721 0.10720071 -0.086275816 0.44729173
0.2007029 -1.1421981 -1.8427349 0.06109059 0.4013848 -1.8932716 0.812606 -0.5942639
-0.17061155 0.47419104 -1.9304211 0.030707002 -1.7436192 -1.9945294 -0.51763916 0.76546824
-2.5093372 -2.2076066 0.6882641 0.010996997 -0.240427 0.46789306 0.26652202 -0.2296946
-0.05801113 -1.4798291 -1.3289316 0.18678638 0.21891251 0.7098383 0.15834549 -1.0118973
0.14041144 0.764044 -1.7241181 -0.23441043 -0.04378356 -1.3190086 -1.3351868 -0.13791014
0.65605927 0.23529235 -1.998602 0.26462367 0.46858898 -1.7762799 -0.09186636 -1.4409544
-0.20704925 0.31745252 0.37688747 -0.07279894 -3.4137614 0.90481 -2.3906298 -0.37837848
0.2622935 0.3443291 -1.6900547 -0.047837526 -0.5201397 0.57052875 -1.438973 -0.74471986
0.14748041 0.61276275 0.3978942 -0.22674443 -0.63698035 -0.22499382 -1.7770085 -1.559991
-1.2292315 -0.5011471 -0.010276424 -0.32545698 -1.349606 -0.8971583 0.20580405 0.71277374
0.028577441 -0.21865326 -0.3901457 0.18343517 0.09633439 -0.58773214 0.047620837 -0.5640504
-0.76060957 0.60542727 0.3373934 0.31185362 -0.32442933 -3.0052955 -0.2818298 -0.21106027
-0.49840125 -1.1673065 0.3701669 -0.028480351 0.41128778 0.43839592 0.024308963 -1.6469053
-2.115878 0.11420617 0.84730905 -0.08519399 -0.41525102 -0.0084140105 -0.13107106 -0.9181268
-3.053816 -0.3447117 0.14229076 0.050550163 -2.9560754 0.9058672 -0.12935461 0.34570304
-0.15461464 -0.24790955 -0.2907256 0.28035828 -1.2859911 1.1206334 -0.26599583 -0.8557128
-0.84381 -1.6166528 0.5107172 0.31005254 0.1962102 -2.180795 0.24372026 0.1513524
0.26284295 -1.3066963 0.5001269 -0.0149075985 0.49389294 -1.3466917 0.4736734 -2.1080995
-0.38094443 0.11184407 0.16802767 0.30203155 0.08804891 0.15140004 0.037185125 -3.224338

l3.bias f4 [23]
00000000: eac9 0d3e df0c afbe 5975 823c b1c6 7a3c
00000010: 5581 3b3c 90a0 843e 3763 da3e c63b a8be
00000020: 6d9a a7be 2c27 533d d316 59be 339f a0be
00000030: d82f 1abe 5314 66bd 4a22 d9be 808d d63e
00000040: 7ccc 75be 3c0d 94bd 66c5 c1bd 8569 9c3e
00000050: f7f5 19be ccf5 c6be bd49 b1bd
0.13846555 -0.34189507 0.015925096 0.015306161 0.011444409 0.2590375 0.4265382 -0.32858104
-0.32735005 0.05155103 -0.21200113 -0.3137146 -0.15057313 -0.056171726 -0.42408973 0.4190483
-0.24003786 -0.07229087 -0.09461479 0.30549255 -0.15035234 -0.38859403 -0.086566426
